…
-50_ddd056b494bf9d00af77c53549e7cc08f23cffe4/case035_liver_rimd.npy'), PosixPath('/work/artifact/RIMDfeature/2022-09-26/06-29-50_ddd056b494bf9d00af77c53549e7cc08f23cffe4/case140_liver_rimd.npy')]
[2022-09-29 12:09:32,695][__main__][INFO] - val_file_num: 19
[2022-09-29 12:09:37,309][__main__][INFO] - 
==========================================================================================
Layer (type:depth-idx)                   Output Shape              Param #
==========================================================================================
├─Sequential: 1-1                        [-1, 300]                 --
|    └─Sequential: 2-1                   [-1, 300]                 --
|    |    └─Linear: 3-1                  [-1, 300]                 3,589,500
|    |    └─BatchNorm1d: 3-2             [-1, 300]                 600
|    |    └─LeakyReLU: 3-3               [-1, 300]                 --
├─Linear: 1-2                            [-1, 128]                 38,528
├─Sequential: 1-3                        [-1, 128]                 --
|    └─Linear: 2-2                       [-1, 128]                 38,528
|    └─Sigmoid: 2-3                      [-1, 128]                 --
├─Sequential: 1-4                        [-1, 300]                 --
|    └─Sequential: 2-4                   [-1, 300]                 --
|    |    └─Linear: 3-4                  [-1, 300]                 38,700
|    |    └─BatchNorm1d: 3-5             [-1, 300]                 600
|    |    └─LeakyReLU: 3-6               [-1, 300]                 --
├─Sequential: 1-5                        [-1, 11964]               --
|    └─Linear: 2-5                       [-1, 11964]               3,601,164
|    └─Tanh: 2-6                         [-1, 11964]               --
==========================================================================================
Total params: 7,307,620
Trainable params: 7,307,620
Non-trainable params: 0
Total mult-adds (M): 18.18
==========================================================================================
Input size (MB): 1.46
Forward/backward pass size (MB): 0.10
Params size (MB): 27.88
Estimated Total Size (MB): 29.44
…
